NoduleDetection/data/models/model.pkl_174.npy (npy, 3480 bytes, 1 tensors)

array f8 [425]
00000000: 496e cf7c 24b7 5340 3cb6 b144 1e2b e13f
00000010: 244c f69b 11a6 c93f 23bc a42f 1162 9240
00000020: 0000 0000 0000 00c0 8195 bc1c a279 d33f
00000030: 0000 0000 0000 00c0 aece 6819 5763 9540
00000040: 0000 0000 0000 00c0 400a 4d0b 2085 c63f
00000050: 96ff 3138 cbff b33f 0000 0000 0000 00c0
00000060: 53ec 8679 2902 9940 3a76 0cd0 1c9b 7940
00000070: 0000 0000 0000 00c0 0000 0000 0000 00c0
00000080: 0000 0000 0000 00c0 fe73 1942 ff49 e43f
00000090: 0000 0000 0000 00c0 5991 9878 ac00 9940
000000a0: 5ac6 8a2f 2d23 5740 0000 0000 0000 00c0
000000b0: 0000 0000 0000 00c0 0000 0000 0000 00c0
000000c0: 3af9 1b45 9ddc 6540 0000 0000 0000 00c0
000000d0: 0f47 03b1 87a3 5c40 0000 0000 0000 00c0
000000e0: 0c68 62b5 0514 d93f f84d 8635 74fb d43f
000000f0: 1b81 3e7b 8d60 6940 e00b 8882 c356 cb3f
00000100: 0000 0000 0000 00c0 0000 0000 0000 00c0
00000110: 0000 0000 0000 00c0 0000 0000 0000 00c0
00000120: da50 fe33 6d18 7a40 37ff 9181 9bff 4940
00000130: 0000 0000 0000 00c0 1b3d 6972 8d9e 6440
00000140: aee0 a440 57f0 5040 90b1 6c1b c838 7540
00000150: 0000 0000 0000 00c0 6a9c b106 35ae e53f
00000160: 0000 0000 0000 00c0 29ea e351 1435 7640
00000170: 9670 e21a 4b18 7640 0000 0000 0000 00c0
00000180: 0000 0000 0000 00c0 0000 0000 0000 00c0
00000190: 069a 0807 03cd cf3f 8fbf ee71 c71f 9a40
000001a0: dbfb a04d ed3d cf3f a190 3c78 5088 5240
000001b0: 0000 0000 0000 00c0 0000 0000 0000 00c0
000001c0: aa6f f7da d47f 9540 0000 0000 0000 00c0
000001d0: 0000 0000 0000 00c0 0000 0000 0000 00c0
000001e0: 960f 8df5 ca07 5140 0000 0000 0000 00c0
000001f0: c075 eb46 e09a 7240 af6d 3693 d7f6 6c40
00000200: 0000 0000 0000 00c0 a4f4 cd77 4565 e13f
00000210: 0000 0000 0000 00c0 26cb 603e 9305 6f40
00000220: 0000 0000 0000 00c0 0000 0000 0000 00c0
00000230: 02bf 47f2 80ff 9140 0000 0000 0000 00c0
00000240: 8c0f a7ce c587 d23f c407 dfd7 e163 6040
00000250: 0000 0000 0000 00c0 6807 bab1 88f4 d73f
00000260: 0000 0000 0000 00c0 0000 0000 0000 00c0
00000270: 0000 0000 0000 00c0 0b1a 5154 058d 4f40
00000280: a4c0 6c02 5220 6e40 6db2 0d91 36d9 4d40
00000290: 12be 24c6 08df d83f 8ab7 8c75 951b d93f
000002a0: 0000 0000 0000 00c0 41fe 85a0 203f d73f
000002b0: 0000 0000 0000 00c0 0f5f 844d 8793 9b40
000002c0: 2cf4 feec 1532 9840 4fd1 3b6b a7cc 9640
000002d0: 0000 0000 0000 00c0 0000 0000 0000 00c0
000002e0: 0000 0000 0000 00c0 7dee 7549 3ef7 d73f
000002f0: 0000 0000 0000 00c0 0000 0000 0000 00c0
00000300: 0000 0000 0000 00c0 0000 0000 0000 00c0
00000310: 0000 0000 0000 00c0 0000 0000 0000 00c0
00000320: 0000 0000 0000 00c0 58c2 46ef 2bdd a040
00000330: 46a5 0b49 a3aa 9b40 662f cce7 b29f 8e40
00000340: 0000 0000 0000 00c0 7a96 d93b 3d4b 7a40
00000350: e885 f9fa f3c2 4b40 0000 0000 0000 00c0
00000360: b153 3f9f e64e dc3f 0000 0000 0000 00c0
00000370: 30a7 2df2 9753 5240 aed7 ea00 d7ab 7640
00000380: 0000 0000 0000 00c0 fd5d 769c feee 5140
00000390: 7acb 55d2 bcd1 9940 0000 0000 0000 00c0
000003a0: 0000 0000 0000 00c0 957f 9991 ca4f e73f
000003b0: fcde 98d8 7def e63f 2c5a d9c7 15ad 7340
000003c0: 0000 0000 0000 00c0 0000 0000 0000 00c0
000003d0: 0000 0000 0000 00c0 0000 0000 0000 00c0
000003e0: 5d3e d372 2e1f 5340 56ac 684d 2b76 d03f
000003f0: 0000 0000 0000 00c0 f8bf 7333 fc4f e53f
00000400: 0000 0000 0000 00c0 a41d 9a1d d2de e93f
00000410: 20d1 d6d8 8fec 9a40 0000 0000 0000 00c0
00000420: 99f2 08c9 4917 e13f 0000 0000 0000 00c0
00000430: 0000 0000 0000 00c0 0000 0000 0000 00c0
00000440: b0a0 3f03 58f0 e23f 0000 0000 0000 00c0
00000450: b56a 765a 5aad 9540 0000 0000 0000 00c0
00000460: 0000 0000 0000 00c0 0000 0000 0000 00c0
00000470: 7de3 2a54 4b9a df3f 9066 9cfc c796 db3f
00000480: f7ab 158d fbf9 9c40 0000 0000 0000 00c0
00000490: dd28 688a 6eb4 7140 142d 8acf 896e 9f40
000004a0: 0000 0000 0000 00c0 b0bd 5c6c a5cc cd3f
000004b0: 0000 0000 0000 00c0 0000 0000 0000 00c0
000004c0: 0000 0000 0000 00c0 0000 0000 0000 00c0
000004d0: 21d7 83be 905b e53f 0000 0000 0000 00c0
000004e0: c7e0 0166 63a0 7840 a8eb e78c d335 e43f
000004f0: 66ab c38e ad08 e03f 0000 0000 0000 00c0
00000500: ea9a 4de9 74cd 6e40 0000 0000 0000 00c0
00000510: 0000 0000 0000 00c0 b006 812d 58e3 e63f
00000520: 0000 0000 0000 00c0 0000 0000 0000 00c0
00000530: 0000 0000 0000 00c0 a970 4d6e 5494 a240
00000540: 7786 3963 3b13 7540 0000 0000 0000 00c0
00000550: 9668 bb57 cbb4 df3f 0000 0000 0000 00c0
00000560: 0000 0000 0000 00c0 0000 0000 0000 00c0
00000570: f470 89e4 79f8 cf3f 0000 0000 0000 00c0
00000580: 44a4 9903 22f2 d13f 0000 0000 0000 00c0
00000590: b2b4 69bc 585a 6940 fadb 18e8 fc7d e43f
000005a0: 7b13 fd93 86c8 e93f ee15 bf50 f70a 5940
000005b0: 3862 0dec 1b81 7140 69fc 4377 347e 5440
000005c0: da65 0048 edd2 6f40 1d42 04d5 2a20 e23f
000005d0: 0000 0000 0000 00c0 5bc3 4385 ad91 9c40
000005e0: f5c3 edc8 c571 e23f 0000 0000 0000 00c0
000005f0: 0000 0000 0000 00c0 0000 0000 0000 00c0
00000600: 0000 0000 0000 00c0 4a5a c9e8 242d d83f
00000610: 0000 0000 0000 00c0 b731 1b85 dbf8 9240
00000620: 0000 0000 0000 00c0 7e93 74e0 bee9 7740
00000630: 9ec1 d535 cfa0 6e40 39e9 364e 9c74 5540
00000640: f155 c563 f8ca 6b40 43bb cba1 a11d d93f
00000650: 0000 0000 0000 00c0 f5f1 db75 fa38 5540
00000660: 42ea 2eda 2059 9940 7ebe d9ff 3e4b 9740
00000670: 0000 0000 0000 00c0 0000 0000 0000 00c0
00000680: d64f fc6c 0b4b e33f 0000 0000 0000 00c0
00000690: 0000 0000 0000 00c0 0000 0000 0000 00c0
000006a0: 0000 0000 0000 00c0 c343 1b8d e1a1 5740
000006b0: 9a82 b6e2 4cc1 5640 1c22 84b7 0d11 5a40
000006c0: 0000 0000 0000 00c0 afe3 98b8 d731 5640
000006d0: 0000 0000 0000 00c0 0000 0000 0000 00c0
000006e0: 9b9c c191 4dee 6b40 3077 c729 987b 6840
000006f0: 0000 0000 0000 00c0 0000 0000 0000 00c0
00000700: 0000 0000 0000 00c0 0000 0000 0000 00c0
00000710: 935f cb72 c9b7 a140 1ddf ab6c 8e9f 7440
00000720: 0000 0000 0000 00c0 dcf7 47e0 ed1b e03f
00000730: 0000 0000 0000 00c0 65b8 bf63 325c e13f
00000740: 0000 0000 0000 00c0 0000 0000 0000 00c0
00000750: 0000 0000 0000 00c0 0000 0000 0000 00c0
00000760: 0000 0000 0000 00c0 b789 f279 dba4 6e40
00000770: 240b ad00 92e1 9340 0000 0000 0000 00c0
00000780: 4fe0 ee8d 2710 6640 962b c127 cbd5 e23f
00000790: fd44 3988 7ec2 6140 6c7c 85f4 35be 6c40
000007a0: 0000 0000 0000 00c0 0000 0000 0000 00c0
000007b0: 0000 0000 0000 00c0 0000 0000 0000 00c0
000007c0: 2b43 2f99 9581 d93f 0000 0000 0000 00c0
000007d0: 667f 2b27 b0a2 df3f 8653 a41c c317 a040
000007e0: 0000 0000 0000 00c0 0000 0000 0000 00c0
000007f0: 946b 98f0 c9c1 9840 9227 81d8 c833 db3f
78.8616020227138 0.5365134565051402 0.2003805171521843 1176.516783308013 -2.0 0.30429890447916114 -2.0 1368.8350578666827
-2.0 0.1759376578502998 0.07812185403781621 -2.0 1600.5405026513806 409.6945343481817 -2.0 -2.0
-2.0 0.6340328494076173 -2.0 1600.1684287871087 92.54963291694858 -2.0 -2.0 -2.0
174.8941979929312 -2.0 114.55515694923473 -2.0 0.39184706414528203 0.3278475306226194 203.01727068145632 0.2135853183136467
-2.0 -2.0 -2.0 -2.0 417.5266609129154 51.99693317059285 -2.0 164.95476646952088
67.7553254709371 339.54885427912177 -2.0 0.6775155192125457 -2.0 355.317460909168 353.5183361859612 -2.0
-2.0 -2.0 0.24844396441876898 1671.9447705559176 0.2440773610159955 74.129911479135 -2.0 -2.0
1375.9578665410904 -2.0 -2.0 -2.0 68.12176264548756 -2.0 297.67975513435886 231.71381531363065
-2.0 0.5436122264797132 -2.0 248.17422408013334 -2.0 -2.0 1151.8759242258388 -2.0
0.2895369070140468 131.12131875572788 -2.0 0.3743001685726228 -2.0 -2.0 -2.0 63.10172513923688
241.01001092186664 59.696977740943886 0.3886129317279209 0.39230858306370264 -2.0 0.36322799373735754 -2.0 1764.8821316416759
1548.5214118801623 1459.1634950014593 -2.0 -2.0 -2.0 0.3744655339612349 -2.0 -2.0
-2.0 -2.0 -2.0 -2.0 -2.0 2158.58580990908 1770.6594583339333 979.9623561813321
-2.0 420.7024496554874 55.52307069 -2.0 0.4423157267713647 -2.0 73.30614904840763 362.7399911092315
-2.0 71.73429023322383 1652.4343961148684 -2.0 -2.0 0.7284901469938513 0.7167348127759108 314.81781754401413
-2.0 -2.0 -2.0 -2.0 76.48720999364146 0.25721247252903845 -2.0 0.666013813488461
-2.0 0.8084498003162719 1723.1404756131305 -2.0 0.5340928007568265 -2.0 -2.0 -2.0
0.5918388427208097 -2.0 1387.338235712302 -2.0 -2.0 -2.0 0.4937923738430568 0.4310779539970122
1854.4956553827485 -2.0 283.2769874638305 2011.6345807638181 -2.0 0.23280780593038974 -2.0 -2.0
-2.0 -2.0 0.6674274178501244 -2.0 394.0242672036515 0.6315706016606457 0.5010593212476635 -2.0
246.4205214038587 -2.0 -2.0 0.7152520073652422 -2.0 -2.0 -2.0 2378.1649040412926
337.2019989249306 -2.0 0.4954098088034099 -2.0 -2.0 -2.0 0.24977039011981328 -2.0
0.2804036173971023 -2.0 202.82333202977821 0.6403793843409169 0.8057282343294071 100.17134493504247 280.0693169138717 81.97195226325279
254.59146499707896 0.5664266739350442 -2.0 1828.4194536769853 0.5763882564916673 -2.0 -2.0 -2.0
-2.0 0.3777553818994518 -2.0 1214.2143749474615 -2.0 382.60910077607684 245.02529422520905 85.82204013216405
222.34282101194506 0.3924335556065907 -2.0 84.89028688887613 1622.282082303093 1490.8115228674428 -2.0 -2.0
0.6029107216477267 -2.0 -2.0 -2.0 -2.0 94.52939155256813 91.02031772444971 104.2664622106899
-2.0 88.77879157000164 -2.0 -2.0 223.4469689160804 195.86232460935707 -2.0 -2.0
-2.0 -2.0 2267.8934539369743 329.97227160584754 -2.0 0.5034093266001451 -2.0 0.5425044964047286
-2.0 -2.0 -2.0 -2.0 -2.0 245.15179154749578 1272.3925807035494 -2.0
176.5048284211684 0.5885978485542747 142.07794581590124 229.9440863234662 -2.0 -2.0 -2.0 -2.0
0.39853420218882957 -2.0 0.4943046934622458 2059.881077895351 -2.0 -2.0 1584.4472068610821 0.425035678320108
