NoduleDetection/data/models/model.pkl_97.npy (npy, 3368 bytes, 1 tensors)

array f8 [411]
1340.3008186916359 176.87930108135535 0.6035438228264087 182.40810437566049 -2.0 0.8152555349906331 -2.0 -2.0
-2.0 375.20502322456105 0.5305595422399345 -2.0 0.5258903449459975 -2.0 0.6296065963318676 309.6281596327332
0.49370549764696736 0.5455133839798717 -2.0 103.63106737641202 190.86220708063905 -2.0 0.6798394346139056 -2.0
1113.7017706035178 -2.0 -2.0 0.5847032904324515 0.5650058766571264 -2.0 0.7210576823630869 -2.0
-2.0 0.7497662762715559 -2.0 -2.0 -2.0 -2.0 297.8239304115176 -2.0
1218.1444518264125 -2.0 1296.2729695445266 -2.0 -2.0 303.7893362742799 -2.0 922.6654169273868
-2.0 428.48748196451345 342.7686732414964 0.6229127901460119 404.7834303517749 -2.0 -2.0 -2.0
-2.0 -2.0 0.8570298219518002 0.7261236467982375 0.3563772894153455 0.6983317217050571 2612.404889376091 159.5067876570424
0.6162697679433495 120.1185053187043 68.40363688040694 1562.101377442992 0.1595785424185162 -2.0 -2.0 0.3796046929636794
232.63547487120866 210.1557467915843 117.5235886860283 -2.0 0.2521704011424947 -2.0 0.29049666882995945 0.1946353782746418
-2.0 -2.0 -2.0 -2.0 -2.0 -2.0 93.1147408448694 0.14029699759960937
-2.0 1872.4365162586032 -2.0 -2.0 218.51990763774137 -2.0 0.6197184141634 0.28398562084785284
0.5680578274393744 0.5498082419982748 -2.0 -2.0 0.4472537286310343 -2.0 -2.0 -2.0
-2.0 -2.0 332.164685128799 0.23164342262189297 -2.0 325.88995143626346 0.3235958717302138 -2.0
-2.0 -2.0 0.11125977535899893 -2.0 91.34957342843971 -2.0 90.14383679635071 341.24431432701846
-2.0 133.89143464522968 2032.1928754766438 61.21889253948763 1633.0379049433573 -2.0 -2.0 -2.0
-2.0 0.3261377379394458 343.05134239329556 -2.0 -2.0 -2.0 -2.0 -2.0
0.3840902119178968 -2.0 -2.0 1754.8925814595505 139.51143555366968 -2.0 158.12555601733064 -2.0
-2.0 140.99858261924172 2092.935441737499 110.02028735122657 -2.0 -2.0 -2.0 -2.0
350.2214229517716 0.46232568612386854 190.54439206446727 0.2851676624964221 -2.0 0.34687139290108293 0.5817694048625718 0.4175802024445157
2100.3477042090835 74.48780906316256 -2.0 105.85305303142083 -2.0 -2.0 -2.0 -2.0
-2.0 -2.0 0.49994906907390674 212.6396217395736 0.3904535772539286 -2.0 -2.0 -2.0
0.7521781807439086 1747.6605574324078 0.7163359448010336 0.38244901325998754 1624.1187234037177 259.424345025059 -2.0 1471.9953934801722
-2.0 -2.0 -2.0 0.44385706580419976 200.0971668400323 -2.0 0.5607256984295341 0.6401492007569252
-2.0 244.66946142570555 -2.0 -2.0 331.6654634869962 -2.0 -2.0 -2.0
-2.0 2042.6272833401463 0.4928399647236202 0.6271482194846697 -2.0 -2.0 94.27824412345805 -2.0
-2.0 2273.924749668187 94.80762072736752 0.5745166717328498 -2.0 -2.0 2122.5617282663293 -2.0
0.37327907949031114 -2.0 2184.0368675990203 -2.0 0.5802321082201878 0.3911438967172814 -2.0 2241.1603786098585
2231.2953200257825 -2.0 -2.0 -2.0 -2.0 0.4025694404154961 314.3286824628379 -2.0
-2.0 -2.0 264.9552010688722 -2.0 -2.0 3879.3587505968094 0.5958799623395776 0.4254958467107097
1961.965312896746 -2.0 44.80786440233135 -2.0 311.6101915033581 0.7272786533770765 98.32279065778609 274.236770322191
-2.0 292.81669396898553 -2.0 62.70630824226249 -2.0 0.4441201804423959 -2.0 -2.0
00000000: 68aa d009 34f1 9440 4778 053c 231c 6640
00000010: 76c0 9722 3b50 e33f 1f5a e830 0fcd 6640
00000020: 0000 0000 0000 00c0 3b5e 95c6 9216 ea3f
00000030: 0000 0000 0000 00c0 0000 0000 0000 00c0
00000040: 0000 0000 0000 00c0 90c6 6ec6 4773 7740
00000050: 3c0a 5001 58fa e03f 0000 0000 0000 00c0
00000060: 3068 1afd 17d4 e03f 0000 0000 0000 00c0
00000070: 7aeb 92bb bc25 e43f 1a74 1df1 0c5a 7340
00000080: bef1 8ff1 de98 df3f b129 f77b d874 e13f
00000090: 0000 0000 0000 00c0 c7d0 6b68 63e8 5940
000000a0: 2eb7 4d33 97db 6740 0000 0000 0000 00c0
000000b0: d454 46a1 3ec1 e53f 0000 0000 0000 00c0
000000c0: 9dfd f39c ce66 9140 0000 0000 0000 00c0
000000d0: 0000 0000 0000 00c0 c7ab c8ac e3b5 e23f
000000e0: 0e49 4934 8714 e23f 0000 0000 0000 00c0
000000f0: afed 888f e712 e73f 0000 0000 0000 00c0
00000100: 0000 0000 0000 00c0 6f5c 87d8 15fe e73f
00000110: 0000 0000 0000 00c0 0000 0000 0000 00c0
00000120: 0000 0000 0000 00c0 0000 0000 0000 00c0
00000130: 5eba a7d1 2e9d 7240 0000 0000 0000 00c0
00000140: 28f9 2deb 9308 9340 0000 0000 0000 00c0
00000150: 2f0a 5485 1741 9440 0000 0000 0000 00c0
00000160: 0000 0000 0000 00c0 42b9 121f a1fc 7240
00000170: 0000 0000 0000 00c0 a62a 1cc6 52d5 8c40
00000180: 0000 0000 0000 00c0 9a6f e3b9 ccc7 7a40
00000190: 9918 507c 4c6c 7540 cefd bdcd e6ee e33f
000001a0: 12b9 43ee 884c 7940 0000 0000 0000 00c0
000001b0: 0000 0000 0000 00c0 0000 0000 0000 00c0
000001c0: 0000 0000 0000 00c0 0000 0000 0000 00c0
000001d0: 9459 1fce c96c eb3f d038 7ba8 673c e73f
000001e0: c6dd c4b0 e2ce d63f 6871 4fc4 bb58 e63f
000001f0: 9e09 a94d cf68 a440 6fa0 bf9a 37f0 6340
00000200: f690 5a60 7bb8 e33f 2b0f 5597 9507 5e40
00000210: aa33 c82f d519 5140 d008 7dcf 6768 9840
00000220: 245a 6ad6 116d c43f 0000 0000 0000 00c0
00000230: 0000 0000 0000 00c0 d8f9 6b7b 714b d83f
00000240: aca8 65cf 5514 6d40 f809 b2e0 fb44 6a40
00000250: 05c3 1e7a 8261 5d40 0000 0000 0000 00c0
00000260: 1f47 7b52 8f23 d03f 0000 0000 0000 00c0
00000270: ff2e 0e57 7f97 d23f 43c6 2ae4 cfe9 c83f
00000280: 0000 0000 0000 00c0 0000 0000 0000 00c0
00000290: 0000 0000 0000 00c0 0000 0000 0000 00c0
000002a0: 0000 0000 0000 00c0 0000 0000 0000 00c0
000002b0: b00e fce9 5747 5740 816a 3584 40f5 c13f
000002c0: 0000 0000 0000 00c0 7e3b 1efe be41 9d40
000002d0: 0000 0000 0000 00c0 0000 0000 0000 00c0
000002e0: 46a1 5715 a350 6b40 0000 0000 0000 00c0
000002f0: f6f1 31b6 bbd4 e33f a4d9 8406 d22c d23f
00000300: 78d8 e29b 872d e23f e485 4e74 0798 e13f
00000310: 0000 0000 0000 00c0 0000 0000 0000 00c0
00000320: 9cff 5e1a ce9f dc3f 0000 0000 0000 00c0
00000330: 0000 0000 0000 00c0 0000 0000 0000 00c0
00000340: 0000 0000 0000 00c0 0000 0000 0000 00c0
00000350: 45a5 df8c a2c2 7440 fc4c 3fde 7da6 cd3f
00000360: 0000 0000 0000 00c0 7a9c b73d 3d5e 7440
00000370: 97eb 8c75 cbb5 d43f 0000 0000 0000 00c0
00000380: 0000 0000 0000 00c0 0000 0000 0000 00c0
00000390: 0bf7 8648 857b bc3f 0000 0000 0000 00c0
000003a0: bfac 3a69 5fd6 5640 0000 0000 0000 00c0
000003b0: 6a12 409f 3489 5640 d1c7 23b6 e853 7540
000003c0: 0000 0000 0000 00c0 0df9 f2a1 86bc 6040
000003d0: 8b21 2681 c5c0 9f40 0938 b5ab 049c 4e40
000003e0: 4eb0 8dd0 2684 9940 0000 0000 0000 00c0
000003f0: 0000 0000 0000 00c0 0000 0000 0000 00c0
00000400: 0000 0000 0000 00c0 e23e 9cd1 70df d43f
00000410: a5c1 664c d270 7540 0000 0000 0000 00c0
00000420: 0000 0000 0000 00c0 0000 0000 0000 00c0
00000430: 0000 0000 0000 00c0 0000 0000 0000 00c0
00000440: 3bab b91c ef94 d83f 0000 0000 0000 00c0
00000450: 0000 0000 0000 00c0 24c7 df00 926b 9b40
00000460: bc20 18ae 5d70 6140 0000 0000 0000 00c0
00000470: 0988 0d8e 04c4 6340 0000 0000 0000 00c0
00000480: 0000 0000 0000 00c0 e97f 8963 f49f 6140
00000490: be2b 38f2 de59 a040 9982 5163 4c81 5b40
000004a0: 0000 0000 0000 00c0 0000 0000 0000 00c0
000004b0: 0000 0000 0000 00c0 0000 0000 0000 00c0
000004c0: 1607 cbf2 8ae3 7540 7d2d 8079 be96 dd3f
000004d0: d822 e8a8 6bd1 6740 2821 13de 2f40 d23f
000004e0: 0000 0000 0000 00c0 4866 1b12 2433 d63f
000004f0: 1357 f6de da9d e23f 4533 3d50 a2b9 da3f
00000500: 643d 4906 b268 a040 703e 8143 389f 5240
00000510: 0000 0000 0000 00c0 31ed bd6b 9876 5a40
00000520: 0000 0000 0000 00c0 0000 0000 0000 00c0
00000530: 0000 0000 0000 00c0 0000 0000 0000 00c0
00000540: 0000 0000 0000 00c0 0000 0000 0000 00c0
00000550: 03a3 5561 2aff df3f f0a8 02c8 7794 6a40
00000560: 785b 3a00 31fd d83f 0000 0000 0000 00c0
00000570: 0000 0000 0000 00c0 0000 0000 0000 00c0
00000580: 69ea e1f9 d711 e83f 49e5 2a69 a44e 9b40
00000590: 96d4 fb5b 39ec e63f 17b4 156d 0b7a d83f
000005a0: f3c0 a092 7960 9940 944d 021e ca36 7040
000005b0: 0000 0000 0000 00c0 f7af 6d48 fbff 9640
000005c0: 0000 0000 0000 00c0 0000 0000 0000 00c0
000005d0: 0000 0000 0000 00c0 4f90 6e77 2768 dc3f
000005e0: 3806 a2fd 1b03 6940 0000 0000 0000 00c0
000005f0: ee02 1905 77f1 e13f 12f8 392d 1a7c e43f
00000600: 0000 0000 0000 00c0 d82a 5e3a 6c95 6e40
00000610: 0000 0000 0000 00c0 0000 0000 0000 00c0
00000620: 4b95 0abd a5ba 7440 0000 0000 0000 00c0
00000630: 0000 0000 0000 00c0 0000 0000 0000 00c0
00000640: 0000 0000 0000 00c0 045d 9056 82ea 9f40
00000650: 6195 a9a2 b08a df3f 19cd 8d24 9911 e43f
00000660: 0000 0000 0000 00c0 0000 0000 0000 00c0
00000670: 9ea3 70c0 ce91 5740 0000 0000 0000 00c0
00000680: 0000 0000 0000 00c0 b3db c978 d9c3 a140
00000690: 60e7 d80e b0b3 5740 f02d 83c9 7062 e23f
000006a0: 0000 0000 0000 00c0 0000 0000 0000 00c0
000006b0: 3fea d89a 1f95 a040 0000 0000 0000 00c0
000006c0: 9c47 acef cde3 d73f 0000 0000 0000 00c0
000006d0: 2658 4fe0 1210 a140 0000 0000 0000 00c0
000006e0: 86a2 1ced 4291 e23f 0191 1b69 8008 d93f
000006f0: 0000 0000 0000 00c0 a428 251d 5282 a140
00000700: 2eb9 2f34 976e a140 0000 0000 0000 00c0
00000710: 0000 0000 0000 00c0 0000 0000 0000 00c0
00000720: 0000 0000 0000 00c0 6507 3d9d b2c3 d93f
00000730: 85ca 8a48 42a5 7340 0000 0000 0000 00c0
00000740: 0000 0000 0000 00c0 0000 0000 0000 00c0
00000750: 917e ea80 488f 7040 0000 0000 0000 00c0
00000760: 0000 0000 0000 00c0 6f81 28ae b74e ae40
00000770: e6e2 d2da 7211 e33f 7834 8dee 523b db3f
00000780: b9e7 fb7a dca7 9e40 0000 0000 0000 00c0
00000790: d0ce c919 6867 4640 0000 0000 0000 00c0
000007a0: 8673 2a58 c379 7340 bcab eae1 dd45 e73f
000007b0: 51a9 259a a894 5840 9467 adcf c923 7140
000007c0: 0000 0000 0000 00c0 22fa b12d 114d 7240
000007d0: 0000 0000 0000 00c0 d1b4 f84e 685a 4f40
000007e0: 0000 0000 0000 00c0 ee98 9f0c 776c dc3f
000007f0: 0000 0000 0000 00c0 0000 0000 0000 00c0
