NoduleDetection/data/models/model.pkl_09.npy (npy, 3736 bytes, 1 tensors)

array f8 [457]
000000 e0 59 34 00 f0 0c 6b 40 ac 84 94 f0 55 e2 d7 3f
       216.40429697251147 0.3731894349494478
000010 6a 4d 25 2f b5 86 d0 3f 00 00 00 00 00 00 00 c0
       0.2582219086081837 -2.0
000020 ee 90 ce 20 77 48 5d 40 47 31 12 55 a3 98 44 40
       117.13227100536798 41.192484506495525
000030 00 00 00 00 00 00 00 c0 35 af 06 55 9a 4f 94 40
       -2.0 1299.900714973873
000040 00 00 00 00 00 00 00 c0 b6 8a 73 15 5b 95 e3 3f
       -2.0 0.6119819087001221
000050 ba b4 e3 0d 5d 5a 51 40 63 93 89 67 b1 29 62 40
       69.41192958104048 145.30290581579456
000060 00 00 00 00 00 00 00 c0 f3 75 fa 68 11 0e d3 3f
       -2.0 0.29773364307206335
000070 33 37 a4 97 99 27 9a 40 00 00 00 00 00 00 00 c0
       1673.8999925287906 -2.0
000080 00 00 00 00 00 00 00 c0 00 00 00 00 00 00 00 c0
       -2.0 -2.0
000090 00 00 00 00 00 00 00 c0 00 00 00 00 00 00 00 c0
       -2.0 -2.0
0000a0 5f 8e c0 5f 2f c7 63 40 be 81 43 be de 30 70 40
       158.22453296288128 259.05438066835256
0000b0 c9 a1 04 7c e4 50 61 40 89 7a b8 54 44 3d d5 3f
       138.52789116768534 0.3318644358968546
0000c0 00 00 00 00 00 00 00 c0 00 00 00 00 00 00 00 c0
       -2.0 -2.0
0000d0 00 00 00 00 00 00 00 c0 00 00 00 00 00 00 00 c0
       -2.0 -2.0
0000e0 00 00 00 00 00 00 00 c0 4c f5 2f 88 84 84 d5 3f
       -2.0 0.33621323871178244
0000f0 51 65 56 2e a8 72 db 3f 3c 5b 2a ef 9d dd 70 40
       0.42887310528893346 269.85105816407645
000100 00 00 00 00 00 00 00 c0 d3 e8 a6 89 69 34 66 40
       -2.0 177.6378830203963
000110 6d 16 c2 39 36 cb c8 3f 00 00 00 00 00 00 00 c0
       0.1937015325567474 -2.0
000120 9b e6 f0 71 4d b3 c9 3f 00 00 00 00 00 00 00 c0
       0.20078437865759188 -2.0
000130 8c 0f ed c9 c5 47 50 40 00 00 00 00 00 00 00 c0
       65.12144706869566 -2.0
000140 00 00 00 00 00 00 00 c0 00 00 00 00 00 00 00 c0
       -2.0 -2.0
000150 19 e7 e4 6f 8c 13 dc 3f 00 00 00 00 00 00 00 c0
       0.43869315077937326 -2.0
000160 c1 63 6d 98 e0 d1 75 40 7b 92 8f b4 3d 99 73 40
       349.11733286600435 313.57756477435004
000170 00 00 00 00 00 00 00 c0 af 5d 09 76 d7 ce dc 3f
       -2.0 0.4501246121121438
000180 00 00 00 00 00 00 00 c0 6d e4 3b a8 36 2e a2 40
       -2.0 2327.1067522732105
000190 02 4e 8a dc 00 77 79 40 8c 01 2c 36 c6 80 49 40
       407.43771032357483 51.006048938262296
0001a0 00 00 00 00 00 00 00 c0 8d f9 41 43 32 c1 d0 3f
       -2.0 0.26179176872383253
0001b0 00 00 00 00 00 00 00 c0 00 00 00 00 00 00 00 c0
       -2.0 -2.0
0001c0 00 00 00 00 00 00 00 c0 00 00 00 00 00 00 00 c0
       -2.0 -2.0
0001d0 00 00 00 00 00 00 00 c0 95 31 b4 6d ca a8 75 40
       -2.0 346.54942102802426
0001e0 54 db 92 fc 63 90 dd 3f 62 7a 15 e4 30 7d 53 40
       0.4619379011668816 77.95610906693904
0001f0 ca e0 c6 5a aa 85 d8 3f 00 00 00 00 00 00 00 c0
       0.38315829148224323 -2.0
000200 19 b7 0e 56 8c bb d5 3f 0f 6a b9 68 07 35 4b 40
       0.3395720329670993 54.414288607153246
000210 00 00 00 00 00 00 00 c0 72 eb 94 40 b9 c5 e1 3f
       -2.0 0.5553861867295906
000220 ca 05 85 6f e3 97 dc 3f 00 00 00 00 00 00 00 c0
       0.4467705334719453 -2.0
000230 55 54 e1 89 2a 4a 70 40 00 00 00 00 00 00 00 c0
       260.63538539904886 -2.0
000240 fc 8f 6b 21 fe 47 4f 40 00 00 00 00 00 00 00 c0
       62.56244294883797 -2.0
000250 00 00 00 00 00 00 00 c0 00 00 00 00 00 00 00 c0
       -2.0 -2.0
000260 26 72 ed d8 12 a9 e1 3f 59 7e 80 8c 2c ff 6b 40
       0.5518888699403461 223.97418809029003
000270 00 00 00 00 00 00 00 c0 1b 0d 19 68 8d c6 68 40
       -2.0 198.20476155178844
000280 c0 ac bd 60 60 42 98 40 01 2c 63 60 00 96 67 40
       1552.5941190373123 188.68754596108923
000290 00 00 00 00 00 00 00 c0 00 00 00 00 00 00 00 c0
       -2.0 -2.0
0002a0 00 00 00 00 00 00 00 c0 00 00 00 00 00 00 00 c0
       -2.0 -2.0
0002b0 00 00 00 00 00 00 00 c0 b0 29 a1 fb d7 40 92 40
       -2.0 1168.2109208280272
0002c0 00 00 00 00 00 00 00 c0 50 2a 3b e6 27 75 e1 3f
       -2.0 0.5455512520505383
0002d0 30 a9 d2 29 98 94 5c 40 f6 0f 4b b4 fa 87 d8 3f
       114.32178731510498 0.38329951864966405
0002e0 00 00 00 00 00 00 00 c0 00 00 00 00 00 00 00 c0
       -2.0 -2.0
0002f0 00 00 00 00 00 00 00 c0 0c 1b 21 d1 85 2d 6f 40
       -2.0 249.42258507219265
000300 f6 e4 bf ff 7a b6 97 40 00 00 00 00 00 00 00 c0
       1517.6201162322518 -2.0
000310 00 00 00 00 00 00 00 c0 00 00 00 00 00 00 00 c0
       -2.0 -2.0
000320 9c c7 6d be cd a3 51 40 00 00 00 00 00 00 00 c0
       70.55943260880161 -2.0
000330 ac c1 73 21 d6 10 e5 3f 4e e2 d8 10 27 91 d8 3f
       0.658305230461385 0.38385941167101556
000340 ce 3c d5 e7 66 de 6d 40 d0 0b 34 09 e8 85 5f 40
       238.95006171844437 126.09228735048896
000350 61 71 b7 fc 3d 60 e5 3f a5 34 d3 53 52 9a c5 3f
       0.6679983077879507 0.16877202122706084
000360 00 00 00 00 00 00 00 c0 00 00 00 00 00 00 00 c0
       -2.0 -2.0
000370 50 d3 ba d6 a7 29 63 40 00 00 00 00 00 00 00 c0
       153.30173813332885 -2.0
000380 00 00 00 00 00 00 00 c0 23 80 af 47 11 c0 da 3f
       -2.0 0.41797286987821475
000390 00 00 00 00 00 00 00 c0 dc 67 a2 c1 ed d3 65 40
       -2.0 174.62277299613822
0003a0 36 4c c7 c1 1a 26 d4 3f d3 56 23 8a 69 cb d0 3f
       0.31482571529085435 0.26241529932063407
0003b0 00 00 00 00 00 00 00 c0 63 3b 55 a0 b1 bd 6b 40
       -2.0 221.92793289801475
0003c0 00 00 00 00 00 00 00 c0 26 04 f4 d1 12 22 62 40
       -2.0 145.06479737910666
0003d0 77 98 0d 9c 3b 0c 53 40 00 00 00 00 00 00 00 c0
       76.19113828017895 -2.0
0003e0 00 00 00 00 00 00 00 c0 00 00 00 00 00 00 00 c0
       -2.0 -2.0
0003f0 00 00 00 00 00 00 00 c0 00 00 00 00 00 00 00 c0
       -2.0 -2.0
000400 18 f6 43 b4 0b 7b cf 3f f1 e3 9b 94 7a 57 e4 3f
       0.24594255735421267 0.6356785681265348
000410 25 16 78 9a 12 6b 72 40 3c ec 1a 37 1e b6 52 40
       294.6920418444518 74.84559419278315
000420 af ff eb 6f d7 2f e2 3f c8 c8 f4 c1 63 04 71 40
       0.5683400331472422 272.27435489291065
000430 00 00 00 00 00 00 00 c0 35 82 fa 88 1a c1 cc 3f
       -2.0 0.22464305580526092
000440 00 00 00 00 00 00 00 c0 00 00 00 00 00 00 00 c0
       -2.0 -2.0
000450 00 00 00 00 00 00 00 c0 a0 90 dc 2e 50 88 55 40
       -2.0 86.12989398517175
000460 00 00 00 00 00 00 00 c0 00 00 00 00 00 00 00 c0
       -2.0 -2.0
000470 00 00 00 00 00 00 00 c0 0d 89 57 85 c4 35 e5 3f
       -2.0 0.6628134350142162
000480 00 00 00 00 00 00 00 c0 e9 36 ce 78 74 5b c8 3f
       -2.0 0.19029098414141934
000490 00 00 00 00 00 00 00 c0 1a f6 cc e0 0c 7b e1 3f
       -2.0 0.5462707892072018
0004a0 7c ce 8e 26 3e 57 70 40 55 4b fa ad aa 65 cc 3f
       261.45267349037 0.22185262198453395
0004b0 00 00 00 00 00 00 00 c0 00 00 00 00 00 00 00 c0
       -2.0 -2.0
0004c0 00 00 00 00 00 00 00 c0 df a3 1a 7b ef d1 62 40
       -2.0 150.56048350527905
0004d0 00 00 00 00 00 00 00 c0 00 00 00 00 00 00 00 c0
       -2.0 -2.0
0004e0 35 67 25 cd d6 6e e6 3f 87 29 a3 a1 c3 74 67 40
       0.7010301596412548 187.64888078563328
0004f0 be fa 73 c8 5e fd 71 40 00 00 00 00 00 00 00 c0
       287.83564038567044 -2.0
000500 e2 73 fe fe f0 61 93 40 00 00 00 00 00 00 00 c0
       1240.4853477247457 -2.0
000510 a9 7a 4f 58 54 dd d0 3f 00 00 00 00 00 00 00 c0
       0.26350887893742453 -2.0
000520 e8 d0 89 0d 74 e8 73 40 00 00 00 00 00 00 00 c0
       318.52833322367087 -2.0
000530 d8 8f b5 d4 eb a7 e4 3f 00 00 00 00 00 00 00 c0
       0.645498195121486 -2.0
000540 00 00 00 00 00 00 00 c0 00 00 00 00 00 00 00 c0
       -2.0 -2.0
000550 b3 c7 c2 80 d9 c7 98 40 c8 3d 50 20 e4 9e 64 40
       1585.9624052461993 164.9653474395002
000560 00 00 00 00 00 00 00 c0 4e 46 67 f0 26 63 d5 3f
       -2.0 0.3341767642678847
000570 00 00 00 00 00 00 00 c0 39 2e 51 50 1c 47 e1 3f
       -2.0 0.5399304932302079
000580 00 00 00 00 00 00 00 c0 8b 98 30 b6 45 1c 73 40
       -2.0 305.7670194528843
000590 00 00 00 00 00 00 00 c0 00 00 00 00 00 00 00 c0
       -2.0 -2.0
0005a0 7f 06 75 95 3f 7f 9e 40 00 00 00 00 00 00 00 c0
       1951.8120935712066 -2.0
0005b0 f3 62 7d a3 79 31 5b 40 fe 35 ee 3b ff 9a 67 40
       108.77304923290994 188.84365650678222
0005c0 99 f0 40 80 4c c8 e2 3f 00 00 00 00 00 00 00 c0
       0.586950541015102 -2.0
0005d0 00 00 00 00 00 00 00 c0 00 00 00 00 00 00 00 c0
       -2.0 -2.0
0005e0 00 00 00 00 00 00 00 c0 13 bf 92 88 89 6f 74 40
       -2.0 326.9710775120049
0005f0 44 c8 cf 24 22 64 73 40 96 69 3b af ca 34 e4 3f
       310.25833588757473 0.6314443037511406
000600 6a ea 65 0f bf fe e0 3f 00 00 00 00 00 00 00 c0
       0.5310969639534282 -2.0
000610 be a4 70 1e 5f 92 71 40 9e 1b 86 c6 ce 2d 6c 40
       281.1482223892343 225.43149114792772
000620 98 c8 20 3f 4c 64 54 40 00 00 00 00 00 00 00 c0
       81.56715372277756 -2.0
000630 21 db b4 87 90 ed 6b 40 44 75 f0 c9 a1 da d9 3f
       223.42389283488686 0.4039692375243542
000640 00 00 00 00 00 00 00 c0 22 ab 6d de 90 d5 59 40
       -2.0 103.3369670935613
000650 f0 0f 61 3c f8 47 56 40 d3 81 34 50 e9 70 71 40
       89.12452611426102 279.0569612551746
000660 00 00 00 00 00 00 00 c0 00 00 00 00 00 00 00 c0
       -2.0 -2.0
000670 a3 21 30 30 89 eb e5 3f 00 00 00 00 00 00 00 c0
       0.685001939885343 -2.0
000680 6f 82 6a 96 37 61 6e 40 00 00 00 00 00 00 00 c0
       243.03803559115065 -2.0
000690 00 00 00 00 00 00 00 c0 4d 80 06 7d d3 63 e8 3f
       -2.0 0.7621858064558268
0006a0 01 0d 08 5a 80 f6 71 40 98 66 6f e4 4b c3 e1 3f
       287.40633586068003 0.5550898992180064
0006b0 00 00 00 00 00 00 00 c0 c1 0d 58 45 e0 c6 68 40
       -2.0 198.21487681577676
0006c0 00 00 00 00 00 00 00 c0 dd 39 f7 b3 ee 1c d9 3f
       -2.0 0.3923908956029701
0006d0 00 00 00 00 00 00 00 c0 e9 f4 50 77 74 ba 5a 40
       -2.0 106.9133585253327
0006e0 00 00 00 00 00 00 00 c0 00 00 00 00 00 00 00 c0
       -2.0 -2.0
0006f0 00 00 00 00 00 00 00 c0 b0 6e c9 d0 57 07 e2 3f
       -2.0 0.5633963659160681
000700 00 00 00 00 00 00 00 c0 00 00 00 00 00 00 00 c0
       -2.0 -2.0
000710 e7 0b d0 6f f3 25 da 3f 00 00 00 00 00 00 00 c0
       0.4085663406296462 -2.0
000720 00 00 00 00 00 00 00 c0 00 00 00 00 00 00 00 c0
       -2.0 -2.0
000730 f6 1f 83 d0 fa ef 72 40 f8 95 a0 06 fc da e1 3f
       302.99873400898593 0.5579815034331537
000740 00 00 00 00 00 00 00 c0 bc fb 26 26 de 1d 6a 40
       -2.0 208.93336780179914
000750 e7 4e fe 8d 73 47 72 40 00 00 00 00 00 00 00 c0
       292.46571158732553 -2.0
000760 09 65 6b 18 bd 3b e7 3f 00 00 00 00 00 00 00 c0
       0.726042316145283 -2.0
000770 00 00 00 00 00 00 00 c0 00 00 00 00 00 00 00 c0
       -2.0 -2.0
000780 1c 5f 6c ed 8d 8f de 3f 84 d5 a0 0e c2 ea 6c 40
       0.4775118654811068 231.33618861592197
000790 00 00 00 00 00 00 00 c0 00 00 00 00 00 00 00 c0
       -2.0 -2.0
0007a0 b1 d4 60 a7 58 1a e2 3f 00 00 00 00 00 00 00 c0
       0.5657161015611988 -2.0
0007b0 00 00 00 00 00 00 00 c0 80 88 9d e4 3f 44 74 40
       -2.0 324.26559888397605
0007c0 00 00 00 00 00 00 00 c0 b3 ac ac 80 59 26 71 40
       -2.0 274.39685122920054
0007d0 00 00 00 00 00 00 00 c0 31 d8 b1 55 18 0c 75 40
       -2.0 336.7559410998393
0007e0 cb 9b c5 a4 e5 cd 71 40 00 00 00 00 00 00 00 c0
       284.86856534186217 -2.0
0007f0 e3 fa e5 93 71 5d e4 3f 00 00 00 00 00 00 00 c0
       0.6364066971435388 -2.0
