NoduleDetection/data/models/model.pkl_295.npy (npy, 680 bytes, 1 tensors)

array f8 [75]
0	0x4076a9f84ac7b3f1	362.6231181908507
1	0x3fe6333114ae2662	0.6937489894782625
2	0x3fdfefab16bd5f56	0.4990031930988058
3	0x407af0017f4e0003	431.000365547836
4	0xc000000000000000	-2.0
5	0x406698431b6df086	180.75819179031913
6	0xc000000000000000	-2.0
7	0x3fda8f03dfff5e08	0.4149789512134423
8	0x4068670e898c0e1d	195.22052457193868
9	0x3fd7c37a5d8dc6f5	0.3713060296641822
10	0xc000000000000000	-2.0
11	0x3fd85dc906d7fb92	0.38072419803932533
12	0xc000000000000000	-2.0
13	0x40553e42b9dd7c85	84.97282263402492
14	0xc000000000000000	-2.0
15	0xc000000000000000	-2.0
16	0x4071aa2b1e1f5456	282.63552677381574
17	0xc000000000000000	-2.0
18	0x3fe38e3bd7381c78	0.6111125186443038
19	0x406906c5d29d4d8c	200.21164828036524
20	0xc000000000000000	-2.0
21	0xc000000000000000	-2.0
22	0xc000000000000000	-2.0
23	0x3fe1e509f4dcb336	0.5592088491881444
24	0xc000000000000000	-2.0
25	0x406e7b298f7d3653	243.84882330375203
26	0x406d1842873b7085	232.7581211243561
27	0x3fe7a1c77bed5ee2	0.7384984417394345
28	0x3fd5779b86f36f37	0.33542526415634505
29	0xc000000000000000	-2.0
30	0x3fe476c3da565f3c	0.6394976868059312
31	0x3fdbcf536e555ea7	0.4345291688418719
32	0xc000000000000000	-2.0
33	0xc000000000000000	-2.0
34	0xc000000000000000	-2.0
35	0xc000000000000000	-2.0
36	0x3fdd645613b808ac	0.459249037987443
37	0x4063e634ca000c6a	159.19394397744628
38	0xc000000000000000	-2.0
39	0xc000000000000000	-2.0
40	0xc000000000000000	-2.0
41	0xc000000000000000	-2.0
42	0x3fe591b1a5f1e363	0.6740349045859201
43	0x4064af4dc5c51e9b	165.47824371814644
44	0xc000000000000000	-2.0
45	0xc000000000000000	-2.0
46	0xc000000000000000	-2.0
47	0x3fe871347f832269	0.763818978354789
48	0x3fe7d7a4188e8f48	0.7450733642221872
49	0x406d4bde590357bd	234.3708920541084
50	0xc000000000000000	-2.0
51	0x40771a8137f7d502	369.6565475159588
52	0x4095f0dc4b6d61b9	1404.2151314822097
53	0xc000000000000000	-2.0
54	0xc000000000000000	-2.0
55	0x3fd88e140e680b29	0.38367177397610647
56	0xc000000000000000	-2.0
57	0x405488e0223891c0	82.13868003391599
58	0xc000000000000000	-2.0
59	0xc000000000000000	-2.0
60	0xc000000000000000	-2.0
61	0x407b3c091e47b812	435.7522261430287
62	0x4064dc7d02e838fa	166.89026017528505
63	0xc000000000000000	-2.0
64	0x3fe9de3d2748dc7a	0.8083787696149465
65	0x3fd8ca7b596a5718	0.38735851032230206
66	0xc000000000000000	-2.0
67	0x40746937027af26e	326.57593009973687
68	0x4062dd771a5cbaee	150.92078893767706
69	0xc000000000000000	-2.0
70	0xc000000000000000	-2.0
71	0xc000000000000000	-2.0
72	0xc000000000000000	-2.0
73	0xc000000000000000	-2.0
74	0xc000000000000000	-2.0
