NoduleDetection/data/models/model.pkl_273.npy (npy, 3768 bytes, 1 tensors)

array f8 [461]
0	0x4070384be601d098	259.5185298987285
1	0x4074b208d51b4412	331.1271563592028
2	0x4054d8b74c8f316e	83.38618768676471
3	0x3fe1a6b9948b5ec7	0.5516021634348015
4	0x3fd8d59440f9eb28	0.3880358347448003
5	0x405c399e48fb733d	112.9002859550064
6	0x3fcbc32180e40643	0.21689242166034903
7	0xc000000000000000	-2.0
8	0x3fdbf84663d67ab0	0.43702850103174296
9	0xc000000000000000	-2.0
10	0x3fc5c7cb2b9a8f96	0.17015971783723377
11	0x404f7c1fbc1ff83f	62.96971847115537
12	0x4067178bda7def18	184.73582195850827
13	0xc000000000000000	-2.0
14	0xc000000000000000	-2.0
15	0x40470b400e681680	46.087892342399755
16	0xc000000000000000	-2.0
17	0x3fc1dc70effcb8e2	0.13953983038067636
18	0xc000000000000000	-2.0
19	0x406c8684b1e2cd09	228.20369810387663
20	0x3fd930d2d9be61a6	0.39360495819121366
21	0xc000000000000000	-2.0
22	0xc000000000000000	-2.0
23	0xc000000000000000	-2.0
24	0xc000000000000000	-2.0
25	0x4062d44954a36892	150.6339514915058
26	0xc000000000000000	-2.0
27	0x405140c18f6d0183	69.01181398053272
28	0x409859b9f5d19b74	1558.4316017867213
29	0xc000000000000000	-2.0
30	0x3fcd59cd59ef339b	0.22930304423644263
31	0xc000000000000000	-2.0
32	0x405e1eeab2b4bdd5	120.48307483339825
33	0xc000000000000000	-2.0
34	0x3fd4fa6baf1934d7	0.3277844629236148
35	0x40451debc4ea3bd8	42.23375760495372
36	0xc000000000000000	-2.0
37	0x3fd429b9aecff71a	0.3150467116500849
38	0x3fdcd1027109e205	0.4502569297688129
39	0x409a9fbbb6ddf777	1703.9333147699633
40	0xc000000000000000	-2.0
41	0xc000000000000000	-2.0
42	0xc000000000000000	-2.0
43	0xc000000000000000	-2.0
44	0xc000000000000000	-2.0
45	0x3fd847a614bd0f4c	0.37937309289212773
46	0x406fd4453fbda88a	254.63345324556968
47	0xc000000000000000	-2.0
48	0x40945aa7a8a5f54f	1302.663729279611
49	0xc000000000000000	-2.0
50	0x4060d3afc6c6a760	134.61520708846638
51	0xc000000000000000	-2.0
52	0x3fd436fd6c5d3b79	0.31585631926002794
53	0xc000000000000000	-2.0
54	0x3fe3e7aece412f5e	0.6220315960322116
55	0xc000000000000000	-2.0
56	0xc000000000000000	-2.0
57	0xc000000000000000	-2.0
58	0xc000000000000000	-2.0
59	0x40540ad2816695a5	80.16909823434851
60	0x4091459703cebb2e	1105.3974754621263
61	0xc000000000000000	-2.0
62	0x3fd506baa4bd4d76	0.3285357102187939
63	0xc000000000000000	-2.0
64	0x40536110b8b3c221	77.51664559893153
65	0xc000000000000000	-2.0
66	0xc000000000000000	-2.0
67	0x3fda744ac187a896	0.4133479013386333
68	0xc000000000000000	-2.0
69	0x40608729a53a0e54	132.22383366908127
70	0xc000000000000000	-2.0
71	0x406a5979bc34b2f4	210.79611025135785
72	0xc000000000000000	-2.0
73	0xc000000000000000	-2.0
74	0x40581b526d5f36a5	96.42690595911206
75	0xc000000000000000	-2.0
76	0x4065937884cce6f1	172.6084617616648
77	0x40660c7a247298f4	176.38990995771712
78	0xc000000000000000	-2.0
79	0x407001719c6cc2e3	256.0902370689857
80	0x4067ee487eb1dc91	191.44634947527496
81	0xc000000000000000	-2.0
82	0xc000000000000000	-2.0
83	0x40a0f63bfb7f9078	2171.1171531547407
84	0x3fe40be4b66197c9	0.6264518320210694
85	0x3fe2c8d4f0908564	0.587015600063904
86	0x409e629bfcb8c538	1944.6523312445042
87	0xc000000000000000	-2.0
88	0xc000000000000000	-2.0
89	0x3fe04c8097055901	0.509338660204577
90	0x40701d6ff30ffae0	257.83983141176395
91	0xc000000000000000	-2.0
92	0x405d246e30ee48dc	116.56922553319913
93	0xc000000000000000	-2.0
94	0xc000000000000000	-2.0
95	0x409195cad35e7b96	1125.4480719340258
96	0xc000000000000000	-2.0
97	0x4064685e779350bd	163.2615316273931
98	0xc000000000000000	-2.0
99	0x4072ef007fda7e01	302.93762193058507
100	0x40a085b80b78cb70	2114.8594625233018
101	0xc000000000000000	-2.0
102	0xc000000000000000	-2.0
103	0x40733bc8cdfd9792	307.73652457293895
104	0x3fce20f290dcc1e5	0.23538047860485203
105	0xc000000000000000	-2.0
106	0xc000000000000000	-2.0
107	0xc000000000000000	-2.0
108	0xc000000000000000	-2.0
109	0xc000000000000000	-2.0
110	0x3fd8a347cf7f8690	0.3849658514355747
111	0x3fdbc05c2361c0b8	0.4336157174611901
112	0x3fd6d48294a32905	0.3567205859695977
113	0x409a3b52e734b6a6	1678.8309601055603
114	0xc000000000000000	-2.0
115	0x405b2ae3024855c6	108.67010552467318
116	0xc000000000000000	-2.0
117	0xc000000000000000	-2.0
118	0xc000000000000000	-2.0
119	0x3fe13474078c08e8	0.5376529834177548
120	0xc000000000000000	-2.0
121	0x3fd7dde53e8d7bca	0.37291842564257804
122	0x407390705c8240e1	313.02743197326896
123	0x4072ed9f98347b3f	302.85146351337966
124	0x3fd5ef02b1dc5e05	0.34271304482669535
125	0xc000000000000000	-2.0
126	0xc000000000000000	-2.0
127	0xc000000000000000	-2.0
128	0x406243ccbafe079a	146.1187415086286
129	0xc000000000000000	-2.0
130	0xc000000000000000	-2.0
131	0x40640f8674845f0d	160.4851629815461
132	0x3fe56adeee44c170	0.6692957547839296
133	0xc000000000000000	-2.0
134	0xc000000000000000	-2.0
135	0xc000000000000000	-2.0
136	0x40692adabbfc95b5	201.33920096714942
137	0x4058d4dfcba029c0	99.3261593879788
138	0xc000000000000000	-2.0
139	0x4067180577db300b	184.75066750345317
140	0xc000000000000000	-2.0
141	0x3fe7db94e2603a1c	0.7455543919948613
142	0xc000000000000000	-2.0
143	0x40723a4d9be9f49b	291.64394751919616
144	0x3fe8404594bcc43a	0.7578456788088552
145	0xc000000000000000	-2.0
146	0x40720e646d8f7cc9	288.89951854753286
147	0xc000000000000000	-2.0
148	0xc000000000000000	-2.0
149	0xc000000000000000	-2.0
150	0x3fe9ddafd06052f7	0.8083113736962265
151	0x3fdc620c73cb8419	0.4434844141779322
152	0x3fd8b16afa96a2d6	0.3858287284042893
153	0xc000000000000000	-2.0
154	0x4070e33f55f0a67f	270.2029628181844
155	0x405627e772fc4fcf	88.6235015357954
156	0xc000000000000000	-2.0
157	0xc000000000000000	-2.0
158	0x3fe6f149dc7fd456	0.7169541651370632
159	0x3fd9c808024ed010	0.40283394074799705
160	0xc000000000000000	-2.0
161	0xc000000000000000	-2.0
162	0x407232f0041585e0	291.1835976448765
163	0xc000000000000000	-2.0
164	0xc000000000000000	-2.0
165	0xc000000000000000	-2.0
166	0xc000000000000000	-2.0
167	0x3fe8974a7b6b8e95	0.7684681330251403
168	0x3fd01f4b7770be97	0.25191008247473107
169	0x3fbd700a8efae015	0.11499086371156893
170	0xc000000000000000	-2.0
171	0x3fcf2a14b46f5429	0.24347170648857855
172	0x405b6cca66b95995	109.69985359287814
173	0x4075634c046b8698	342.2060589027619
174	0xc000000000000000	-2.0
175	0x4053968b922ead17	78.35226873930183
176	0xc000000000000000	-2.0
177	0x3fe852228649a445	0.7600262282186426
178	0x4075bef6aaf1bded	347.93522161894253
179	0xc000000000000000	-2.0
180	0x4077ad2e7bbc5a5d	378.82384847236045
181	0x3fe721940c28c328	0.7228489148602408
182	0x4048e7555fd3ceab	49.80729291765359
183	0xc000000000000000	-2.0
184	0x409e8466e38ea0ce	1953.1004774366043
185	0x4058d4b487212969	99.32351854551747
186	0x40576969599ad2d3	93.64705505485044
187	0xc000000000000000	-2.0
188	0xc000000000000000	-2.0
189	0xc000000000000000	-2.0
190	0xc000000000000000	-2.0
191	0xc000000000000000	-2.0
192	0xc000000000000000	-2.0
193	0xc000000000000000	-2.0
194	0xc000000000000000	-2.0
195	0xc000000000000000	-2.0
196	0x3fd39d891926bb12	0.3064902063005529
197	0x4060fbe29a6077c5	135.87141150323274
198	0x4058bdebf255fbd8	98.96752603909351
199	0x3fe4c1db964623b7	0.648664277557251
200	0xc000000000000000	-2.0
201	0x4048bee311517dc6	49.49130455473964
202	0xc000000000000000	-2.0
203	0x4077b4919319c923	379.2855406768087
204	0x3fd298abce633158	0.29056830554033786
205	0x3fd1065f08774cbe	0.2660138685871053
206	0xc000000000000000	-2.0
207	0x4098e55cd8fd8aba	1593.340671502678
208	0x4095a310219a3620	1384.765753182939
209	0xc000000000000000	-2.0
210	0xc000000000000000	-2.0
211	0xc000000000000000	-2.0
212	0x4051997823ca32f0	70.39795775171274
213	0x3fe65b6c2a4a56d8	0.6986599756225713
214	0xc000000000000000	-2.0
215	0xc000000000000000	-2.0
216	0xc000000000000000	-2.0
217	0xc000000000000000	-2.0
218	0xc000000000000000	-2.0
219	0xc000000000000000	-2.0
220	0x3fe593f2059a07e4	0.6743097409637326
221	0x406d51c0627fa381	234.55473446778709
222	0x4069a52962fb4a53	205.16130208091872
223	0x4046174596bc2e8b	44.18181118191304
224	0xc000000000000000	-2.0
225	0x3fe15a6895f52bdc	0.5422861985074365
226	0x4055ebd918cdd7b2	87.68512554265797
227	0x40964f544ff466a9	1427.832336252943
228	0xc000000000000000	-2.0
229	0xc000000000000000	-2.0
230	0xc000000000000000	-2.0
231	0xc000000000000000	-2.0
232	0xc000000000000000	-2.0
233	0xc000000000000000	-2.0
234	0xc000000000000000	-2.0
235	0x3fe75470ad168a1c	0.7290576344133259
236	0x3feb154da13e4a9b	0.8463504933627805
237	0x3fd769f9f3c482f3	0.36584328465873667
238	0xc000000000000000	-2.0
239	0x3fe04a04fe87af09	0.5090355845727298
240	0xc000000000000000	-2.0
241	0x3fe9dd8d5bf4bb1b	0.8082949443831667
242	0x3fe2c9ee3517172a	0.5871497189443506
243	0x409ec896c8a9b12e	1970.1472498430626
244	0x3fe22d0636996d24	0.5679961267846108
245	0xc000000000000000	-2.0
246	0xc000000000000000	-2.0
247	0xc000000000000000	-2.0
248	0xc000000000000000	-2.0
249	0xc000000000000000	-2.0
250	0xc000000000000000	-2.0
251	0xc000000000000000	-2.0
252	0x4059bc92b694f926	102.94645466373603
253	0xc000000000000000	-2.0
254	0x3fe76b305802b660	0.7318345755536022
255	0x3fe5ead4ecac15aa	0.6849159834388747
