NoduleDetection/data/models/model.pkl_273.npy (npy, 4088 bytes, 1 tensors)

array f8 [501]
0	0x3fe2cb8ee953d4d0	0.5873484189202376
1	0x3fc8f46d24cfe8da	0.1949593000170527
2	0x3fc809a239751345	0.18779399686368428
3	0x404013f1068027e2	32.15579301126105
4	0xc000000000000000	-2.0
5	0x404cf2ebf1b2e5d8	57.89782544360395
6	0xc000000000000000	-2.0
7	0x3fd405325753ca64	0.31281717804009745
8	0xc000000000000000	-2.0
9	0x4097f880d6a9f102	1534.1258188775396
10	0x4057c12ab4108256	95.01823140728206
11	0x407bf3e2f674c7c6	447.2429108201726
12	0x404aee834beddd06	53.863381854194856
13	0xc000000000000000	-2.0
14	0x407999e3dc6813c8	409.61813011794266
15	0x3fd3127b8b18b7fc	0.29800308784149343
16	0xc000000000000000	-2.0
17	0x404cd964df2cb2ca	57.69839086229838
18	0xc000000000000000	-2.0
19	0x3fc69b242b833648	0.17660953640590749
20	0x4052ba1490c27429	74.90750521649956
21	0x3fe080c456a45536	0.5157186214661695
22	0x4050f771ff0beee4	67.86633278050755
23	0x3fe2677e4f132efc	0.575133470957979
24	0x404e6b82a4d0d705	60.8399244327284
25	0xc000000000000000	-2.0
26	0xc000000000000000	-2.0
27	0xc000000000000000	-2.0
28	0xc000000000000000	-2.0
29	0xc000000000000000	-2.0
30	0xc000000000000000	-2.0
31	0x40726178a922e2f1	294.0919581759218
32	0xc000000000000000	-2.0
33	0xc000000000000000	-2.0
34	0xc000000000000000	-2.0
35	0xc000000000000000	-2.0
36	0xc000000000000000	-2.0
37	0xc000000000000000	-2.0
38	0xc000000000000000	-2.0
39	0x40756ed933221db2	342.92802728010713
40	0x3fdc451193d38a24	0.4417156165710898
41	0x404e4b4fef9896a0	60.58837695074658
42	0xc000000000000000	-2.0
43	0x3fda8dbc6fe25b79	0.41490088392441
44	0x3fd939e2eaafa168	0.3941581050735494
45	0x3fd4f4d6ff81a9ae	0.3274438376598948
46	0xc000000000000000	-2.0
47	0x4068aa28557ed451	197.31742357989654
48	0x4067f248d8efe492	191.57139250616143
49	0x406f07e642280fcc	248.24685771774818
50	0x3fd80eebfdcadb5d	0.3759107569161893
51	0x409cbd9673b46b2d	1839.396925753633
52	0xc000000000000000	-2.0
53	0x3fd67947492ff28f	0.3511522497863461
54	0x406a5a3b25957476	210.81972006979385
55	0xc000000000000000	-2.0
56	0xc000000000000000	-2.0
57	0xc000000000000000	-2.0
58	0xc000000000000000	-2.0
59	0xc000000000000000	-2.0
60	0x3fe4bf0395c4fe07	0.6483171391664094
61	0xc000000000000000	-2.0
62	0x40685bd3fd4777a8	194.86962760885694
63	0xc000000000000000	-2.0
64	0x409f35a19ed81343	1997.40783250444
65	0xc000000000000000	-2.0
66	0xc000000000000000	-2.0
67	0xc000000000000000	-2.0
68	0x4053085581f710ab	76.13021897437527
69	0xc000000000000000	-2.0
70	0x4067d9688cb0f2d1	190.79401239929442
71	0x4059416e6bb382dd	101.02236454515828
72	0xc000000000000000	-2.0
73	0x3fe094a7b768e94f	0.5181463796828129
74	0x405e3b9a998d7735	120.93131102385526
75	0x3fc750438356a087	0.18213695443160224
76	0xc000000000000000	-2.0
77	0xc000000000000000	-2.0
78	0xc000000000000000	-2.0
79	0xc000000000000000	-2.0
80	0x40780a6553ffd4cb	384.64973831113883
81	0x3fdc7b750f42f6ea	0.44503523340595896
82	0xc000000000000000	-2.0
83	0x3fe377968c79ef2d	0.60834815441874
84	0x3fe0d0003b2ec000	0.5253907352362148
85	0xc000000000000000	-2.0
86	0xc000000000000000	-2.0
87	0xc000000000000000	-2.0
88	0xc000000000000000	-2.0
89	0x3fd352009aa443ff	0.3018800268337713
90	0xc000000000000000	-2.0
91	0x3fd96743cdbebdf4	0.39692778675359297
92	0xc000000000000000	-2.0
93	0x3fe1bff211c46f9e	0.5546808573740127
94	0x3fdbf8cbb7407197	0.4370602883880336
95	0x3fe8e9bc8f495379	0.7785322950900159
96	0xc000000000000000	-2.0
97	0x3febd02a99ae6055	0.8691609384141069
98	0x409311cea1fd2b9d	1220.4517898137922
99	0xc000000000000000	-2.0
100	0x40523d308311fa61	72.95608593707722
101	0xc000000000000000	-2.0
102	0xc000000000000000	-2.0
103	0xc000000000000000	-2.0
104	0xc000000000000000	-2.0
105	0x3fe2ad3278bff57a	0.5836422308345128
106	0xc000000000000000	-2.0
107	0xc000000000000000	-2.0
108	0x3fdf95df3e25ebbe	0.4935224635043446
109	0x3fdf3cc92baeb992	0.48808507219191555
110	0x3fe3247a573288f4	0.5982028678011191
111	0x409ec5026d591a04	1969.2523702547196
112	0x405f1d3d92293a7b	124.45688299204078
113	0xc000000000000000	-2.0
114	0x4092fe78c54cecf2	1215.6179401416416
115	0xc000000000000000	-2.0
116	0x406dcc391633d872	238.38196859479973
117	0x3fdd6c2ccb95185a	0.459727476893368
118	0xc000000000000000	-2.0
119	0x3fddb01721daa02e	0.46387270265631997
120	0xc000000000000000	-2.0
121	0xc000000000000000	-2.0
122	0xc000000000000000	-2.0
123	0xc000000000000000	-2.0
124	0x409934b165948162	1613.1732390598268
125	0xc000000000000000	-2.0
126	0x40559a0a1e2ab414	86.40686754389054
127	0xc000000000000000	-2.0
128	0xc000000000000000	-2.0
129	0xc000000000000000	-2.0
130	0x4077d3af96b8875f	381.2303683479458
131	0x3fe47a718a0a94e3	0.6399467178458987
132	0x4067ffc0e60ebf82	191.99229720001682
133	0x405c35ca879deb95	112.84048643514537
134	0xc000000000000000	-2.0
135	0x40673ea797a93d4f	185.9579580598315
136	0x3fe11cea8e44a05a	0.5347798136399533
137	0x4062daa79afe754f	150.83295964907526
138	0x404d1077970c20ef	58.12864959804744
139	0xc000000000000000	-2.0
140	0x409542989d1c5d31	1360.6490368301277
141	0xc000000000000000	-2.0
142	0xc000000000000000	-2.0
143	0xc000000000000000	-2.0
144	0x40718f765e711eed	280.9663986605436
145	0xc000000000000000	-2.0
146	0x406138900db2f120	137.7675846571883
147	0xc000000000000000	-2.0
148	0xc000000000000000	-2.0
149	0xc000000000000000	-2.0
150	0x3fe507c19858ef83	0.6571968055281875
151	0xc000000000000000	-2.0
152	0x4071632f27fbc65e	278.1990127406078
153	0xc000000000000000	-2.0
154	0x4075ed8f66d39b1f	350.84751017244884
155	0xc000000000000000	-2.0
156	0x407318c31f2ed186	305.54763716019113
157	0x405ac198fbed0332	107.02496240754843
158	0x4072538bc1f8e718	293.2216205332529
159	0xc000000000000000	-2.0
160	0x3fe709b53d76b36a	0.7199350548231511
161	0xc000000000000000	-2.0
162	0xc000000000000000	-2.0
163	0xc000000000000000	-2.0
164	0xc000000000000000	-2.0
165	0x3fd4e4d423699b18	0.32646659334425143
166	0xc000000000000000	-2.0
167	0x3fddabd84f25c190	0.46361358384367524
168	0x405f2382172ec704	124.55481509750467
169	0xc000000000000000	-2.0
170	0x40a0ca887c4fc911	2149.2665734227126
171	0x409f65495ffc7292	2009.3216552205017
172	0x407246d1b770ada4	292.4262003327842
173	0x4066c212d7eac426	182.06480022290015
174	0xc000000000000000	-2.0
175	0x3fe54057f66220b0	0.6641044437574433
176	0x3fd554a335173512	0.3332908647979177
177	0xc000000000000000	-2.0
178	0xc000000000000000	-2.0
179	0xc000000000000000	-2.0
180	0xc000000000000000	-2.0
181	0xc000000000000000	-2.0
182	0xc000000000000000	-2.0
183	0x3fe46f6ba4ef7ed8	0.6386011334797912
184	0xc000000000000000	-2.0
185	0x4098a429b7446054	1577.0407381709856
186	0xc000000000000000	-2.0
187	0xc000000000000000	-2.0
188	0x3fe4071933790e32	0.625866508992152
189	0xc000000000000000	-2.0
190	0x3febfecace489d96	0.8748525647142056
191	0x407a5eff538b1dff	421.9373355325951
192	0x3fd7cb26107c9dda	0.37177421197926963
193	0xc000000000000000	-2.0
194	0x4079393f4763527f	403.5779489402557
195	0x3fde86975d51ecdc	0.47696479905398603
196	0xc000000000000000	-2.0
197	0x407460b14ccd4163	326.04328613450906
198	0xc000000000000000	-2.0
199	0xc000000000000000	-2.0
200	0xc000000000000000	-2.0
201	0xc000000000000000	-2.0
202	0xc000000000000000	-2.0
203	0x407274337824e867	295.2625657502853
204	0x4060c3e36a2007c7	134.1215105653375
205	0x3fd0e151f1bfdf70	0.2637524472079269
206	0xc000000000000000	-2.0
207	0x405edea1af0bbd43	123.47861839434067
208	0xc000000000000000	-2.0
209	0x406071e06eb2a3c1	131.5586465348297
210	0x40496eeb6943ddd7	50.86655917943761
211	0xc000000000000000	-2.0
212	0x40a12fd189c3f7a3	2199.9092541923324
213	0x407b41f6e84d83ee	436.1227801349586
214	0xc000000000000000	-2.0
215	0xc000000000000000	-2.0
216	0xc000000000000000	-2.0
217	0xc000000000000000	-2.0
218	0x3fd4f44de52e689c	0.327411149797294
219	0x40980a52c3dc44a6	1538.5808252732181
220	0x4094e8a0f0975142	1338.157167782149
221	0xc000000000000000	-2.0
222	0x40762271610444e3	354.1526804129373
223	0x40640f8e1dc51f1c	160.48609817982003
224	0xc000000000000000	-2.0
225	0xc000000000000000	-2.0
226	0xc000000000000000	-2.0
227	0x3fd9e665221d2e38	0.404687197985115
228	0xc000000000000000	-2.0
229	0x40638955ff06d2ac	156.29174758274655
230	0x4062fe0322c63c06	151.93788279264135
231	0xc000000000000000	-2.0
232	0x3fe728f98a5a31f3	0.723751802653679
233	0xc000000000000000	-2.0
234	0xc000000000000000	-2.0
235	0xc000000000000000	-2.0
236	0x3feb1c8e8336591d	0.8472359240284139
237	0x406e2c71b18498e4	241.3888785924711
238	0xc000000000000000	-2.0
239	0x40525170d234a2e2	73.27251105442295
240	0x3fe0c7b3ddb0af68	0.5243777589689502
241	0xc000000000000000	-2.0
242	0x40721de5a87ddbcb	289.86856888926985
243	0x3fe6b76fefd1cee0	0.7098922428108061
244	0x4076564eb4ce2c9d	357.39421539818596
245	0xc000000000000000	-2.0
246	0xc000000000000000	-2.0
247	0xc000000000000000	-2.0
248	0xc000000000000000	-2.0
249	0xc000000000000000	-2.0
250	0xc000000000000000	-2.0
251	0x3fec230d3daca61a	0.8792787746980963
252	0x4077fcaa34691954	383.7915538888385
253	0x3fd9c32fd3f5a400	0.4025382585446664
254	0xc000000000000000	-2.0
255	0x4076535aa8e5c6b5	357.2096337295182
